Model: "sequential"
+--------------------------------------------------------------------------------------+
| Layer (type)                         | Output Shape                |         Param # |
|--------------------------------------+-----------------------------+-----------------|
| conv2d (Conv2D)                      | (None, 222, 222, 32)        |             896 |
|--------------------------------------+-----------------------------+-----------------|
| max_pooling2d (MaxPooling2D)         | (None, 111, 111, 32)        |               0 |
|--------------------------------------+-----------------------------+-----------------|
| conv2d_1 (Conv2D)                    | (None, 109, 109, 64)        |          18,496 |
|--------------------------------------+-----------------------------+-----------------|
| max_pooling2d_1 (MaxPooling2D)       | (None, 54, 54, 64)          |               0 |
|--------------------------------------+-----------------------------+-----------------|
| conv2d_2 (Conv2D)                    | (None, 52, 52, 128)         |          73,856 |
|--------------------------------------+-----------------------------+-----------------|
| max_pooling2d_2 (MaxPooling2D)       | (None, 26, 26, 128)         |               0 |
|--------------------------------------+-----------------------------+-----------------|
| conv2d_3 (Conv2D)                    | (None, 24, 24, 128)         |         147,584 |
|--------------------------------------+-----------------------------+-----------------|
| max_pooling2d_3 (MaxPooling2D)       | (None, 12, 12, 128)         |               0 |
|--------------------------------------+-----------------------------+-----------------|
| dropout (Dropout)                    | (None, 12, 12, 128)         |               0 |
|--------------------------------------+-----------------------------+-----------------|
| flatten (Flatten)                    | (None, 18432)               |               0 |
|--------------------------------------+-----------------------------+-----------------|
| dense (Dense)                        | (None, 512)                 |       9,437,696 |
|--------------------------------------+-----------------------------+-----------------|
| dense_1 (Dense)                      | (None, 2)                   |           1,026 |
+--------------------------------------------------------------------------------------+
 Total params: 9,679,554 (36.92 MB)
 Trainable params: 9,679,554 (36.92 MB)
 Non-trainable params: 0 (0.00 B)
